# Ultralytics YOLO ðŸš€, AGPL-3.0 license
# YOLOv8 object detection model with P3-P5 outputs. For Usage examples see https://docs.ultralytics.com/tasks/detect

# Parameters
nc: 80  # number of classes
depth_multiple: 0.33
width_multiple: 0.25
max_channels: 1024

# YOLOv8.0n backbone
backbone:
  # [from, repeats, module, args]
#  - [-1, 1, Conv, [64, 3, 2]]  # 0-P1/2      # å®žé™…ç‰¹å¾å›¾è¾“å‡ºå¤§å°å˜ä¸ºï¼š320 * 320
#  - [-1, 1, Conv, [128, 3, 2]]  # 1-P2/4     # å®žé™…ç‰¹å¾å›¾è¾“å‡ºå¤§å°å˜ä¸ºï¼š160 * 160
#  - [-1, 3, C2f, [128, True]]
#  - [-1, 1, Conv, [256, 3, 2]]  # 3-P3/8     # å®žé™…ç‰¹å¾å›¾è¾“å‡ºå¤§å°å˜ä¸ºï¼š80 * 80
#  - [-1, 6, C2f, [256, True]]
#  - [-1, 1, Conv, [512, 3, 2]]  # 5-P4/16    # å®žé™…ç‰¹å¾å›¾è¾“å‡ºå¤§å°å˜ä¸ºï¼š40 * 40
#  - [-1, 6, C2f, [512, True]]
#  - [-1, 1, Conv, [1024, 3, 2]]  # 7-P5/32   # å®žé™…ç‰¹å¾å›¾è¾“å‡ºå¤§å°å˜ä¸ºï¼š20 * 20
#  - [-1, 3, C2f, [1024, True]]
#  - [-1, 1, SPPF, [1024, 5]]  # 9            # å®žé™…ç‰¹å¾å›¾è¾“å‡ºå¤§å°å˜ä¸ºï¼š20 * 20
  - [-1, 1, MobileNetV4, [32, 1]]  # 0-P1/2   # å®žé™…ç‰¹å¾å›¾è¾“å‡ºå¤§å°å˜ä¸ºï¼š320 * 320
  - [-1, 1, MobileNetV4, [48, 2]]  # 1-P2/3   # å®žé™…ç‰¹å¾å›¾è¾“å‡ºå¤§å°å˜ä¸ºï¼š160 * 160
  - [-1, 1, MobileNetV4, [80, 3]]  # 2-P3/8   # å®žé™…ç‰¹å¾å›¾è¾“å‡ºå¤§å°å˜ä¸ºï¼š80 * 80
  - [-1, 1, MobileNetV4, [160, 4]]  # 3-P4/16  # å®žé™…ç‰¹å¾å›¾è¾“å‡ºå¤§å°å˜ä¸ºï¼š40 * 40
  - [-1, 1, MobileNetV4, [960, 5]] # 4-P5/32  # å®žé™…ç‰¹å¾å›¾è¾“å‡ºå¤§å°å˜ä¸ºï¼š20 * 20


# YOLOv8.0n head
head:
  - [-1, 1, nn.Upsample, [None, 2, 'nearest']]      # ä¸Šé‡‡æ ·å®žé™…ç‰¹å¾å›¾è¾“å‡ºå¤§å°å˜ä¸ºï¼š40 * 40
  - [[-1, 3], 1, Concat, [1]]  # cat backbone P4    # å®žé™…ç‰¹å¾å›¾è¾“å‡ºå¤§å°å˜ä¸ºï¼š40 * 40
  - [-1, 3, C2f, [512]]  # 12  ->  # 7

  - [-1, 1, nn.Upsample, [None, 2, 'nearest']]      # ä¸Šé‡‡æ ·å®žé™…ç‰¹å¾å›¾è¾“å‡ºå¤§å°å˜ä¸ºï¼š80 * 80
  - [[-1, 2], 1, Concat, [1]]  # cat backbone P3    # å®žé™…ç‰¹å¾å›¾è¾“å‡ºå¤§å°å˜ä¸ºï¼š80 * 80
  - [-1, 3, C2f, [256]]  # 15 (P3/8-small)  ->  # 10

  - [-1, 1, Conv, [256, 3, 2]]                      # ä¸‹é‡‡æ ·å®žé™…ç‰¹å¾å›¾è¾“å‡ºå¤§å°å˜ä¸ºï¼š40 * 40
  - [[-1, 7], 1, Concat, [1]]  # cat head P4       # å®žé™…ç‰¹å¾å›¾è¾“å‡ºå¤§å°å˜ä¸ºï¼š40 * 40
  - [-1, 3, C2f, [512]]  # 18 (P4/16-medium)  ->  #13

  - [-1, 1, Conv, [512, 3, 2]]                      # ä¸‹é‡‡æ ·å®žé™…ç‰¹å¾å›¾è¾“å‡ºå¤§å°å˜ä¸ºï¼š20 * 20
  - [[-1, 4], 1, Concat, [1]]  # cat head P5        # å®žé™…ç‰¹å¾å›¾è¾“å‡ºå¤§å°å˜ä¸ºï¼š20 * 20
  - [-1, 3, C2f, [1024]]  # 21 (P5/32-large)   ->  # 16

  - [[10, 13, 16], 1, Detect, [nc]]  # Detect(P3, P4, P5)